I0301 19:19:58.753568  6417 caffe.cpp:348] Use GPU with device ID 0
I0301 19:19:59.159502  6417 net.cpp:51] Initializing net from parameters: 
name: "semantic"
state {
  phase: TRAIN
  level: 0
  stage: ""
}
layer {
  name: "data"
  type: "Input"
  top: "data"
  input_param {
    shape {
      dim: 1
      dim: 3
      dim: 416
      dim: 416
    }
  }
}
layer {
  name: "conv1"
  type: "Convolution"
  bottom: "data"
  top: "conv1"
  convolution_param {
    num_output: 16
    bias_term: false
    pad: 1
    kernel_size: 3
    stride: 1
  }
}
layer {
  name: "bn1"
  type: "BatchNorm"
  bottom: "conv1"
  top: "bn1"
  batch_norm_param {
    use_global_stats: true
  }
}
layer {
  name: "scale1"
  type: "Scale"
  bottom: "bn1"
  top: "scale1"
  scale_param {
    bias_term: true
  }
}
layer {
  name: "relu1"
  type: "ReLU"
  bottom: "scale1"
  top: "scale1"
  relu_param {
    negative_slope: 0.1
  }
}
layer {
  name: "pool1"
  type: "Pooling"
  bottom: "scale1"
  top: "pool1"
  pooling_param {
    pool: MAX
    kernel_size: 2
    stride: 2
  }
}
layer {
  name: "conv2"
  type: "Convolution"
  bottom: "pool1"
  top: "conv2"
  convolution_param {
    num_output: 32
    bias_term: false
    pad: 1
    kernel_size: 3
    stride: 1
  }
}
layer {
  name: "bn2"
  type: "BatchNorm"
  bottom: "conv2"
  top: "bn2"
  batch_norm_param {
    use_global_stats: true
  }
}
layer {
  name: "scale2"
  type: "Scale"
  bottom: "bn2"
  top: "scale2"
  scale_param {
    bias_term: true
  }
}
layer {
  name: "relu2"
  type: "ReLU"
  bottom: "scale2"
  top: "scale2"
  relu_param {
    negative_slope: 0.1
  }
}
layer {
  name: "pool2"
  type: "Pooling"
  bottom: "scale2"
  top: "pool2"
  pooling_param {
    pool: MAX
    kernel_size: 2
    stride: 2
  }
}
layer {
  name: "conv3"
  type: "Convolution"
  bottom: "pool2"
  top: "conv3"
  convolution_param {
    num_output: 64
    bias_term: false
    pad: 1
    kernel_size: 3
    stride: 1
  }
}
layer {
  name: "bn3"
  type: "BatchNorm"
  bottom: "conv3"
  top: "bn3"
  batch_norm_param {
    use_global_stats: true
  }
}
layer {
  name: "scale3"
  type: "Scale"
  bottom: "bn3"
  top: "scale3"
  scale_param {
    bias_term: true
  }
}
layer {
  name: "relu3"
  type: "ReLU"
  bottom: "scale3"
  top: "scale3"
  relu_param {
    negative_slope: 0.1
  }
}
layer {
  name: "pool3"
  type: "Pooling"
  bottom: "scale3"
  top: "pool3"
  pooling_param {
    pool: MAX
    kernel_size: 2
    stride: 2
  }
}
layer {
  name: "conv4"
  type: "Convolution"
  bottom: "pool3"
  top: "conv4"
  convolution_param {
    num_output: 128
    bias_term: false
    pad: 1
    kernel_size: 3
    stride: 1
  }
}
layer {
  name: "bn4"
  type: "BatchNorm"
  bottom: "conv4"
  top: "bn4"
  batch_norm_param {
    use_global_stats: true
  }
}
layer {
  name: "scale4"
  type: "Scale"
  bottom: "bn4"
  top: "scale4"
  scale_param {
    bias_term: true
  }
}
layer {
  name: "relu4"
  type: "ReLU"
  bottom: "scale4"
  top: "scale4"
  relu_param {
    negative_slope: 0.1
  }
}
layer {
  name: "pool4"
  type: "Pooling"
  bottom: "scale4"
  top: "pool4"
  pooling_param {
    pool: MAX
    kernel_size: 2
    stride: 2
  }
}
layer {
  name: "conv5"
  type: "Convolution"
  bottom: "pool4"
  top: "conv5"
  convolution_param {
    num_output: 256
    bias_term: false
    pad: 1
    kernel_size: 3
    stride: 1
  }
}
layer {
  name: "bn5"
  type: "BatchNorm"
  bottom: "conv5"
  top: "bn5"
  batch_norm_param {
    use_global_stats: true
  }
}
layer {
  name: "scale5"
  type: "Scale"
  bottom: "bn5"
  top: "scale5"
  scale_param {
    bias_term: true
  }
}
layer {
  name: "relu5"
  type: "ReLU"
  bottom: "scale5"
  top: "scale5"
  relu_param {
    negative_slope: 0.1
  }
}
layer {
  name: "pool5"
  type: "Pooling"
  bottom: "scale5"
  top: "pool5"
  pooling_param {
    pool: MAX
    kernel_size: 2
    stride: 2
  }
}
layer {
  name: "conv6"
  type: "Convolution"
  bottom: "pool5"
  top: "conv6"
  convolution_param {
    num_output: 512
    bias_term: false
    pad: 1
    kernel_size: 3
    stride: 1
  }
}
layer {
  name: "bn6"
  type: "BatchNorm"
  bottom: "conv6"
  top: "bn6"
  batch_norm_param {
    use_global_stats: true
  }
}
layer {
  name: "scale6"
  type: "Scale"
  bottom: "bn6"
  top: "scale6"
  scale_param {
    bias_term: true
  }
}
layer {
  name: "relu6"
  type: "ReLU"
  bottom: "scale6"
  top: "scale6"
  relu_param {
    negative_slope: 0.1
  }
}
layer {
  name: "conv7"
  type: "Convolution"
  bottom: "scale6"
  top: "conv7"
  convolution_param {
    num_output: 1024
    bias_term: false
    pad: 1
    kernel_size: 3
    stride: 1
  }
}
layer {
  name: "bn7"
  type: "BatchNorm"
  bottom: "conv7"
  top: "bn7"
  batch_norm_param {
    use_global_stats: true
  }
}
layer {
  name: "scale7"
  type: "Scale"
  bottom: "bn7"
  top: "scale7"
  scale_param {
    bias_term: true
  }
}
layer {
  name: "relu7"
  type: "ReLU"
  bottom: "scale7"
  top: "scale7"
  relu_param {
    negative_slope: 0.1
  }
}
layer {
  name: "conv8"
  type: "Convolution"
  bottom: "scale7"
  top: "conv8"
  convolution_param {
    num_output: 1024
    bias_term: false
    pad: 1
    kernel_size: 3
    stride: 1
  }
}
layer {
  name: "bn8"
  type: "BatchNorm"
  bottom: "conv8"
  top: "bn8"
  batch_norm_param {
    use_global_stats: true
  }
}
layer {
  name: "scale8"
  type: "Scale"
  bottom: "bn8"
  top: "scale8"
  scale_param {
    bias_term: true
  }
}
layer {
  name: "relu8"
  type: "ReLU"
  bottom: "scale8"
  top: "scale8"
  relu_param {
    negative_slope: 0.1
  }
}
layer {
  name: "conv9"
  type: "Convolution"
  bottom: "scale8"
  top: "conv9"
  convolution_param {
    num_output: 9
    bias_term: false
    pad: 1
    kernel_size: 3
    stride: 1
  }
}
layer {
  name: "bn9"
  type: "BatchNorm"
  bottom: "conv9"
  top: "bn9"
  batch_norm_param {
    use_global_stats: true
  }
}
layer {
  name: "scale9"
  type: "Scale"
  bottom: "bn9"
  top: "scale9"
  scale_param {
    bias_term: true
  }
}
layer {
  name: "relu9"
  type: "ReLU"
  bottom: "scale9"
  top: "scale9"
  relu_param {
    negative_slope: 0.1
  }
}
layer {
  name: "conv10"
  type: "Convolution"
  bottom: "scale9"
  top: "conv10"
  convolution_param {
    num_output: 9
    bias_term: false
    kernel_size: 1
    stride: 1
  }
}
layer {
  name: "bn10"
  type: "BatchNorm"
  bottom: "conv10"
  top: "bn10"
  batch_norm_param {
    use_global_stats: true
  }
}
layer {
  name: "scale10"
  type: "Scale"
  bottom: "bn10"
  top: "scale10"
  scale_param {
    bias_term: true
  }
}
layer {
  name: "relu10"
  type: "ReLU"
  bottom: "scale10"
  top: "scale10"
  relu_param {
    negative_slope: 0.1
  }
}
layer {
  name: "upscore"
  type: "Deconvolution"
  bottom: "scale10"
  top: "upscore"
  convolution_param {
    num_output: 9
    bias_term: false
    pad: 16
    kernel_size: 64
    stride: 32
  }
}
I0301 19:19:59.159677  6417 layer_factory.hpp:77] Creating layer data
I0301 19:19:59.159693  6417 net.cpp:84] Creating Layer data
I0301 19:19:59.159698  6417 net.cpp:380] data -> data
I0301 19:19:59.171149  6417 net.cpp:122] Setting up data
I0301 19:19:59.171190  6417 net.cpp:129] Top shape: 1 3 416 416 (519168)
I0301 19:19:59.171193  6417 net.cpp:137] Memory required for data: 2076672
I0301 19:19:59.171201  6417 layer_factory.hpp:77] Creating layer conv1
I0301 19:19:59.171221  6417 net.cpp:84] Creating Layer conv1
I0301 19:19:59.171226  6417 net.cpp:406] conv1 <- data
I0301 19:19:59.171234  6417 net.cpp:380] conv1 -> conv1
I0301 19:19:59.501560  6417 net.cpp:122] Setting up conv1
I0301 19:19:59.501600  6417 net.cpp:129] Top shape: 1 16 416 416 (2768896)
I0301 19:19:59.501603  6417 net.cpp:137] Memory required for data: 13152256
I0301 19:19:59.501626  6417 layer_factory.hpp:77] Creating layer bn1
I0301 19:19:59.501638  6417 net.cpp:84] Creating Layer bn1
I0301 19:19:59.501643  6417 net.cpp:406] bn1 <- conv1
I0301 19:19:59.501648  6417 net.cpp:380] bn1 -> bn1
I0301 19:19:59.502315  6417 net.cpp:122] Setting up bn1
I0301 19:19:59.502328  6417 net.cpp:129] Top shape: 1 16 416 416 (2768896)
I0301 19:19:59.502331  6417 net.cpp:137] Memory required for data: 24227840
I0301 19:19:59.502341  6417 layer_factory.hpp:77] Creating layer scale1
I0301 19:19:59.502352  6417 net.cpp:84] Creating Layer scale1
I0301 19:19:59.502357  6417 net.cpp:406] scale1 <- bn1
I0301 19:19:59.502374  6417 net.cpp:380] scale1 -> scale1
I0301 19:19:59.502416  6417 layer_factory.hpp:77] Creating layer scale1
I0301 19:19:59.503459  6417 net.cpp:122] Setting up scale1
I0301 19:19:59.503481  6417 net.cpp:129] Top shape: 1 16 416 416 (2768896)
I0301 19:19:59.503484  6417 net.cpp:137] Memory required for data: 35303424
I0301 19:19:59.503492  6417 layer_factory.hpp:77] Creating layer relu1
I0301 19:19:59.503510  6417 net.cpp:84] Creating Layer relu1
I0301 19:19:59.503515  6417 net.cpp:406] relu1 <- scale1
I0301 19:19:59.503518  6417 net.cpp:367] relu1 -> scale1 (in-place)
I0301 19:19:59.504020  6417 net.cpp:122] Setting up relu1
I0301 19:19:59.504043  6417 net.cpp:129] Top shape: 1 16 416 416 (2768896)
I0301 19:19:59.504047  6417 net.cpp:137] Memory required for data: 46379008
I0301 19:19:59.504050  6417 layer_factory.hpp:77] Creating layer pool1
I0301 19:19:59.504056  6417 net.cpp:84] Creating Layer pool1
I0301 19:19:59.504060  6417 net.cpp:406] pool1 <- scale1
I0301 19:19:59.504075  6417 net.cpp:380] pool1 -> pool1
I0301 19:19:59.504135  6417 net.cpp:122] Setting up pool1
I0301 19:19:59.504142  6417 net.cpp:129] Top shape: 1 16 208 208 (692224)
I0301 19:19:59.504145  6417 net.cpp:137] Memory required for data: 49147904
I0301 19:19:59.504148  6417 layer_factory.hpp:77] Creating layer conv2
I0301 19:19:59.504166  6417 net.cpp:84] Creating Layer conv2
I0301 19:19:59.504170  6417 net.cpp:406] conv2 <- pool1
I0301 19:19:59.504174  6417 net.cpp:380] conv2 -> conv2
I0301 19:19:59.506029  6417 net.cpp:122] Setting up conv2
I0301 19:19:59.506042  6417 net.cpp:129] Top shape: 1 32 208 208 (1384448)
I0301 19:19:59.506048  6417 net.cpp:137] Memory required for data: 54685696
I0301 19:19:59.506064  6417 layer_factory.hpp:77] Creating layer bn2
I0301 19:19:59.506072  6417 net.cpp:84] Creating Layer bn2
I0301 19:19:59.506075  6417 net.cpp:406] bn2 <- conv2
I0301 19:19:59.506080  6417 net.cpp:380] bn2 -> bn2
I0301 19:19:59.506661  6417 net.cpp:122] Setting up bn2
I0301 19:19:59.506675  6417 net.cpp:129] Top shape: 1 32 208 208 (1384448)
I0301 19:19:59.506688  6417 net.cpp:137] Memory required for data: 60223488
I0301 19:19:59.506698  6417 layer_factory.hpp:77] Creating layer scale2
I0301 19:19:59.506707  6417 net.cpp:84] Creating Layer scale2
I0301 19:19:59.506711  6417 net.cpp:406] scale2 <- bn2
I0301 19:19:59.506716  6417 net.cpp:380] scale2 -> scale2
I0301 19:19:59.506762  6417 layer_factory.hpp:77] Creating layer scale2
I0301 19:19:59.506911  6417 net.cpp:122] Setting up scale2
I0301 19:19:59.506918  6417 net.cpp:129] Top shape: 1 32 208 208 (1384448)
I0301 19:19:59.506923  6417 net.cpp:137] Memory required for data: 65761280
I0301 19:19:59.506938  6417 layer_factory.hpp:77] Creating layer relu2
I0301 19:19:59.506944  6417 net.cpp:84] Creating Layer relu2
I0301 19:19:59.506948  6417 net.cpp:406] relu2 <- scale2
I0301 19:19:59.506953  6417 net.cpp:367] relu2 -> scale2 (in-place)
I0301 19:19:59.507118  6417 net.cpp:122] Setting up relu2
I0301 19:19:59.507128  6417 net.cpp:129] Top shape: 1 32 208 208 (1384448)
I0301 19:19:59.507143  6417 net.cpp:137] Memory required for data: 71299072
I0301 19:19:59.507145  6417 layer_factory.hpp:77] Creating layer pool2
I0301 19:19:59.507151  6417 net.cpp:84] Creating Layer pool2
I0301 19:19:59.507155  6417 net.cpp:406] pool2 <- scale2
I0301 19:19:59.507159  6417 net.cpp:380] pool2 -> pool2
I0301 19:19:59.507205  6417 net.cpp:122] Setting up pool2
I0301 19:19:59.507211  6417 net.cpp:129] Top shape: 1 32 104 104 (346112)
I0301 19:19:59.507215  6417 net.cpp:137] Memory required for data: 72683520
I0301 19:19:59.507218  6417 layer_factory.hpp:77] Creating layer conv3
I0301 19:19:59.507225  6417 net.cpp:84] Creating Layer conv3
I0301 19:19:59.507228  6417 net.cpp:406] conv3 <- pool2
I0301 19:19:59.507233  6417 net.cpp:380] conv3 -> conv3
I0301 19:19:59.508718  6417 net.cpp:122] Setting up conv3
I0301 19:19:59.508730  6417 net.cpp:129] Top shape: 1 64 104 104 (692224)
I0301 19:19:59.508735  6417 net.cpp:137] Memory required for data: 75452416
I0301 19:19:59.508739  6417 layer_factory.hpp:77] Creating layer bn3
I0301 19:19:59.508759  6417 net.cpp:84] Creating Layer bn3
I0301 19:19:59.508764  6417 net.cpp:406] bn3 <- conv3
I0301 19:19:59.508767  6417 net.cpp:380] bn3 -> bn3
I0301 19:19:59.508944  6417 net.cpp:122] Setting up bn3
I0301 19:19:59.508951  6417 net.cpp:129] Top shape: 1 64 104 104 (692224)
I0301 19:19:59.508956  6417 net.cpp:137] Memory required for data: 78221312
I0301 19:19:59.508961  6417 layer_factory.hpp:77] Creating layer scale3
I0301 19:19:59.508970  6417 net.cpp:84] Creating Layer scale3
I0301 19:19:59.508975  6417 net.cpp:406] scale3 <- bn3
I0301 19:19:59.508978  6417 net.cpp:380] scale3 -> scale3
I0301 19:19:59.509011  6417 layer_factory.hpp:77] Creating layer scale3
I0301 19:19:59.509116  6417 net.cpp:122] Setting up scale3
I0301 19:19:59.509124  6417 net.cpp:129] Top shape: 1 64 104 104 (692224)
I0301 19:19:59.509127  6417 net.cpp:137] Memory required for data: 80990208
I0301 19:19:59.509136  6417 layer_factory.hpp:77] Creating layer relu3
I0301 19:19:59.509142  6417 net.cpp:84] Creating Layer relu3
I0301 19:19:59.509146  6417 net.cpp:406] relu3 <- scale3
I0301 19:19:59.509151  6417 net.cpp:367] relu3 -> scale3 (in-place)
I0301 19:19:59.509598  6417 net.cpp:122] Setting up relu3
I0301 19:19:59.509610  6417 net.cpp:129] Top shape: 1 64 104 104 (692224)
I0301 19:19:59.509614  6417 net.cpp:137] Memory required for data: 83759104
I0301 19:19:59.509618  6417 layer_factory.hpp:77] Creating layer pool3
I0301 19:19:59.509622  6417 net.cpp:84] Creating Layer pool3
I0301 19:19:59.509626  6417 net.cpp:406] pool3 <- scale3
I0301 19:19:59.509630  6417 net.cpp:380] pool3 -> pool3
I0301 19:19:59.509670  6417 net.cpp:122] Setting up pool3
I0301 19:19:59.509675  6417 net.cpp:129] Top shape: 1 64 52 52 (173056)
I0301 19:19:59.509680  6417 net.cpp:137] Memory required for data: 84451328
I0301 19:19:59.509682  6417 layer_factory.hpp:77] Creating layer conv4
I0301 19:19:59.509690  6417 net.cpp:84] Creating Layer conv4
I0301 19:19:59.509694  6417 net.cpp:406] conv4 <- pool3
I0301 19:19:59.509699  6417 net.cpp:380] conv4 -> conv4
I0301 19:19:59.511216  6417 net.cpp:122] Setting up conv4
I0301 19:19:59.511229  6417 net.cpp:129] Top shape: 1 128 52 52 (346112)
I0301 19:19:59.511232  6417 net.cpp:137] Memory required for data: 85835776
I0301 19:19:59.511236  6417 layer_factory.hpp:77] Creating layer bn4
I0301 19:19:59.511243  6417 net.cpp:84] Creating Layer bn4
I0301 19:19:59.511247  6417 net.cpp:406] bn4 <- conv4
I0301 19:19:59.511251  6417 net.cpp:380] bn4 -> bn4
I0301 19:19:59.511802  6417 net.cpp:122] Setting up bn4
I0301 19:19:59.511813  6417 net.cpp:129] Top shape: 1 128 52 52 (346112)
I0301 19:19:59.511816  6417 net.cpp:137] Memory required for data: 87220224
I0301 19:19:59.511824  6417 layer_factory.hpp:77] Creating layer scale4
I0301 19:19:59.511831  6417 net.cpp:84] Creating Layer scale4
I0301 19:19:59.511835  6417 net.cpp:406] scale4 <- bn4
I0301 19:19:59.511840  6417 net.cpp:380] scale4 -> scale4
I0301 19:19:59.511874  6417 layer_factory.hpp:77] Creating layer scale4
I0301 19:19:59.511965  6417 net.cpp:122] Setting up scale4
I0301 19:19:59.511970  6417 net.cpp:129] Top shape: 1 128 52 52 (346112)
I0301 19:19:59.511975  6417 net.cpp:137] Memory required for data: 88604672
I0301 19:19:59.511979  6417 layer_factory.hpp:77] Creating layer relu4
I0301 19:19:59.511988  6417 net.cpp:84] Creating Layer relu4
I0301 19:19:59.511992  6417 net.cpp:406] relu4 <- scale4
I0301 19:19:59.511996  6417 net.cpp:367] relu4 -> scale4 (in-place)
I0301 19:19:59.512454  6417 net.cpp:122] Setting up relu4
I0301 19:19:59.512466  6417 net.cpp:129] Top shape: 1 128 52 52 (346112)
I0301 19:19:59.512470  6417 net.cpp:137] Memory required for data: 89989120
I0301 19:19:59.512473  6417 layer_factory.hpp:77] Creating layer pool4
I0301 19:19:59.512480  6417 net.cpp:84] Creating Layer pool4
I0301 19:19:59.512483  6417 net.cpp:406] pool4 <- scale4
I0301 19:19:59.512488  6417 net.cpp:380] pool4 -> pool4
I0301 19:19:59.512527  6417 net.cpp:122] Setting up pool4
I0301 19:19:59.512534  6417 net.cpp:129] Top shape: 1 128 26 26 (86528)
I0301 19:19:59.512547  6417 net.cpp:137] Memory required for data: 90335232
I0301 19:19:59.512550  6417 layer_factory.hpp:77] Creating layer conv5
I0301 19:19:59.512557  6417 net.cpp:84] Creating Layer conv5
I0301 19:19:59.512560  6417 net.cpp:406] conv5 <- pool4
I0301 19:19:59.512565  6417 net.cpp:380] conv5 -> conv5
I0301 19:19:59.514773  6417 net.cpp:122] Setting up conv5
I0301 19:19:59.514791  6417 net.cpp:129] Top shape: 1 256 26 26 (173056)
I0301 19:19:59.514794  6417 net.cpp:137] Memory required for data: 91027456
I0301 19:19:59.514809  6417 layer_factory.hpp:77] Creating layer bn5
I0301 19:19:59.514818  6417 net.cpp:84] Creating Layer bn5
I0301 19:19:59.514822  6417 net.cpp:406] bn5 <- conv5
I0301 19:19:59.514827  6417 net.cpp:380] bn5 -> bn5
I0301 19:19:59.515017  6417 net.cpp:122] Setting up bn5
I0301 19:19:59.515023  6417 net.cpp:129] Top shape: 1 256 26 26 (173056)
I0301 19:19:59.515027  6417 net.cpp:137] Memory required for data: 91719680
I0301 19:19:59.515043  6417 layer_factory.hpp:77] Creating layer scale5
I0301 19:19:59.515051  6417 net.cpp:84] Creating Layer scale5
I0301 19:19:59.515056  6417 net.cpp:406] scale5 <- bn5
I0301 19:19:59.515063  6417 net.cpp:380] scale5 -> scale5
I0301 19:19:59.515125  6417 layer_factory.hpp:77] Creating layer scale5
I0301 19:19:59.515235  6417 net.cpp:122] Setting up scale5
I0301 19:19:59.515242  6417 net.cpp:129] Top shape: 1 256 26 26 (173056)
I0301 19:19:59.515245  6417 net.cpp:137] Memory required for data: 92411904
I0301 19:19:59.515250  6417 layer_factory.hpp:77] Creating layer relu5
I0301 19:19:59.515255  6417 net.cpp:84] Creating Layer relu5
I0301 19:19:59.515259  6417 net.cpp:406] relu5 <- scale5
I0301 19:19:59.515265  6417 net.cpp:367] relu5 -> scale5 (in-place)
I0301 19:19:59.515450  6417 net.cpp:122] Setting up relu5
I0301 19:19:59.515461  6417 net.cpp:129] Top shape: 1 256 26 26 (173056)
I0301 19:19:59.515465  6417 net.cpp:137] Memory required for data: 93104128
I0301 19:19:59.515467  6417 layer_factory.hpp:77] Creating layer pool5
I0301 19:19:59.515472  6417 net.cpp:84] Creating Layer pool5
I0301 19:19:59.515476  6417 net.cpp:406] pool5 <- scale5
I0301 19:19:59.515482  6417 net.cpp:380] pool5 -> pool5
I0301 19:19:59.515521  6417 net.cpp:122] Setting up pool5
I0301 19:19:59.515529  6417 net.cpp:129] Top shape: 1 256 13 13 (43264)
I0301 19:19:59.515533  6417 net.cpp:137] Memory required for data: 93277184
I0301 19:19:59.515539  6417 layer_factory.hpp:77] Creating layer conv6
I0301 19:19:59.515552  6417 net.cpp:84] Creating Layer conv6
I0301 19:19:59.515558  6417 net.cpp:406] conv6 <- pool5
I0301 19:19:59.515570  6417 net.cpp:380] conv6 -> conv6
I0301 19:19:59.519618  6417 net.cpp:122] Setting up conv6
I0301 19:19:59.519657  6417 net.cpp:129] Top shape: 1 512 13 13 (86528)
I0301 19:19:59.519664  6417 net.cpp:137] Memory required for data: 93623296
I0301 19:19:59.519673  6417 layer_factory.hpp:77] Creating layer bn6
I0301 19:19:59.519685  6417 net.cpp:84] Creating Layer bn6
I0301 19:19:59.519691  6417 net.cpp:406] bn6 <- conv6
I0301 19:19:59.519697  6417 net.cpp:380] bn6 -> bn6
I0301 19:19:59.519894  6417 net.cpp:122] Setting up bn6
I0301 19:19:59.519901  6417 net.cpp:129] Top shape: 1 512 13 13 (86528)
I0301 19:19:59.519917  6417 net.cpp:137] Memory required for data: 93969408
I0301 19:19:59.519928  6417 layer_factory.hpp:77] Creating layer scale6
I0301 19:19:59.519945  6417 net.cpp:84] Creating Layer scale6
I0301 19:19:59.519949  6417 net.cpp:406] scale6 <- bn6
I0301 19:19:59.519964  6417 net.cpp:380] scale6 -> scale6
I0301 19:19:59.520009  6417 layer_factory.hpp:77] Creating layer scale6
I0301 19:19:59.520114  6417 net.cpp:122] Setting up scale6
I0301 19:19:59.520123  6417 net.cpp:129] Top shape: 1 512 13 13 (86528)
I0301 19:19:59.520125  6417 net.cpp:137] Memory required for data: 94315520
I0301 19:19:59.520130  6417 layer_factory.hpp:77] Creating layer relu6
I0301 19:19:59.520136  6417 net.cpp:84] Creating Layer relu6
I0301 19:19:59.520140  6417 net.cpp:406] relu6 <- scale6
I0301 19:19:59.520145  6417 net.cpp:367] relu6 -> scale6 (in-place)
I0301 19:19:59.520623  6417 net.cpp:122] Setting up relu6
I0301 19:19:59.520637  6417 net.cpp:129] Top shape: 1 512 13 13 (86528)
I0301 19:19:59.520640  6417 net.cpp:137] Memory required for data: 94661632
I0301 19:19:59.520644  6417 layer_factory.hpp:77] Creating layer conv7
I0301 19:19:59.520653  6417 net.cpp:84] Creating Layer conv7
I0301 19:19:59.520658  6417 net.cpp:406] conv7 <- scale6
I0301 19:19:59.520663  6417 net.cpp:380] conv7 -> conv7
I0301 19:19:59.530879  6417 net.cpp:122] Setting up conv7
I0301 19:19:59.530925  6417 net.cpp:129] Top shape: 1 1024 13 13 (173056)
I0301 19:19:59.530930  6417 net.cpp:137] Memory required for data: 95353856
I0301 19:19:59.530938  6417 layer_factory.hpp:77] Creating layer bn7
I0301 19:19:59.530961  6417 net.cpp:84] Creating Layer bn7
I0301 19:19:59.530967  6417 net.cpp:406] bn7 <- conv7
I0301 19:19:59.530975  6417 net.cpp:380] bn7 -> bn7
I0301 19:19:59.531180  6417 net.cpp:122] Setting up bn7
I0301 19:19:59.531188  6417 net.cpp:129] Top shape: 1 1024 13 13 (173056)
I0301 19:19:59.531203  6417 net.cpp:137] Memory required for data: 96046080
I0301 19:19:59.531213  6417 layer_factory.hpp:77] Creating layer scale7
I0301 19:19:59.531224  6417 net.cpp:84] Creating Layer scale7
I0301 19:19:59.531229  6417 net.cpp:406] scale7 <- bn7
I0301 19:19:59.531244  6417 net.cpp:380] scale7 -> scale7
I0301 19:19:59.531311  6417 layer_factory.hpp:77] Creating layer scale7
I0301 19:19:59.531437  6417 net.cpp:122] Setting up scale7
I0301 19:19:59.531445  6417 net.cpp:129] Top shape: 1 1024 13 13 (173056)
I0301 19:19:59.531447  6417 net.cpp:137] Memory required for data: 96738304
I0301 19:19:59.531466  6417 layer_factory.hpp:77] Creating layer relu7
I0301 19:19:59.531473  6417 net.cpp:84] Creating Layer relu7
I0301 19:19:59.531477  6417 net.cpp:406] relu7 <- scale7
I0301 19:19:59.531482  6417 net.cpp:367] relu7 -> scale7 (in-place)
I0301 19:19:59.531683  6417 net.cpp:122] Setting up relu7
I0301 19:19:59.531693  6417 net.cpp:129] Top shape: 1 1024 13 13 (173056)
I0301 19:19:59.531697  6417 net.cpp:137] Memory required for data: 97430528
I0301 19:19:59.531699  6417 layer_factory.hpp:77] Creating layer conv8
I0301 19:19:59.531710  6417 net.cpp:84] Creating Layer conv8
I0301 19:19:59.531714  6417 net.cpp:406] conv8 <- scale7
I0301 19:19:59.531720  6417 net.cpp:380] conv8 -> conv8
I0301 19:19:59.551160  6417 net.cpp:122] Setting up conv8
I0301 19:19:59.551190  6417 net.cpp:129] Top shape: 1 1024 13 13 (173056)
I0301 19:19:59.551193  6417 net.cpp:137] Memory required for data: 98122752
I0301 19:19:59.551210  6417 layer_factory.hpp:77] Creating layer bn8
I0301 19:19:59.551221  6417 net.cpp:84] Creating Layer bn8
I0301 19:19:59.551225  6417 net.cpp:406] bn8 <- conv8
I0301 19:19:59.551234  6417 net.cpp:380] bn8 -> bn8
I0301 19:19:59.551437  6417 net.cpp:122] Setting up bn8
I0301 19:19:59.551445  6417 net.cpp:129] Top shape: 1 1024 13 13 (173056)
I0301 19:19:59.551460  6417 net.cpp:137] Memory required for data: 98814976
I0301 19:19:59.551467  6417 layer_factory.hpp:77] Creating layer scale8
I0301 19:19:59.551476  6417 net.cpp:84] Creating Layer scale8
I0301 19:19:59.551479  6417 net.cpp:406] scale8 <- bn8
I0301 19:19:59.551484  6417 net.cpp:380] scale8 -> scale8
I0301 19:19:59.551520  6417 layer_factory.hpp:77] Creating layer scale8
I0301 19:19:59.551621  6417 net.cpp:122] Setting up scale8
I0301 19:19:59.551628  6417 net.cpp:129] Top shape: 1 1024 13 13 (173056)
I0301 19:19:59.551632  6417 net.cpp:137] Memory required for data: 99507200
I0301 19:19:59.551637  6417 layer_factory.hpp:77] Creating layer relu8
I0301 19:19:59.551656  6417 net.cpp:84] Creating Layer relu8
I0301 19:19:59.551661  6417 net.cpp:406] relu8 <- scale8
I0301 19:19:59.551666  6417 net.cpp:367] relu8 -> scale8 (in-place)
I0301 19:19:59.552397  6417 net.cpp:122] Setting up relu8
I0301 19:19:59.552408  6417 net.cpp:129] Top shape: 1 1024 13 13 (173056)
I0301 19:19:59.552423  6417 net.cpp:137] Memory required for data: 100199424
I0301 19:19:59.552428  6417 layer_factory.hpp:77] Creating layer conv9
I0301 19:19:59.552436  6417 net.cpp:84] Creating Layer conv9
I0301 19:19:59.552453  6417 net.cpp:406] conv9 <- scale8
I0301 19:19:59.552459  6417 net.cpp:380] conv9 -> conv9
I0301 19:19:59.554060  6417 net.cpp:122] Setting up conv9
I0301 19:19:59.554074  6417 net.cpp:129] Top shape: 1 9 13 13 (1521)
I0301 19:19:59.554078  6417 net.cpp:137] Memory required for data: 100205508
I0301 19:19:59.554082  6417 layer_factory.hpp:77] Creating layer bn9
I0301 19:19:59.554090  6417 net.cpp:84] Creating Layer bn9
I0301 19:19:59.554095  6417 net.cpp:406] bn9 <- conv9
I0301 19:19:59.554100  6417 net.cpp:380] bn9 -> bn9
I0301 19:19:59.554293  6417 net.cpp:122] Setting up bn9
I0301 19:19:59.554301  6417 net.cpp:129] Top shape: 1 9 13 13 (1521)
I0301 19:19:59.554314  6417 net.cpp:137] Memory required for data: 100211592
I0301 19:19:59.554322  6417 layer_factory.hpp:77] Creating layer scale9
I0301 19:19:59.554329  6417 net.cpp:84] Creating Layer scale9
I0301 19:19:59.554333  6417 net.cpp:406] scale9 <- bn9
I0301 19:19:59.554337  6417 net.cpp:380] scale9 -> scale9
I0301 19:19:59.554376  6417 layer_factory.hpp:77] Creating layer scale9
I0301 19:19:59.554476  6417 net.cpp:122] Setting up scale9
I0301 19:19:59.554483  6417 net.cpp:129] Top shape: 1 9 13 13 (1521)
I0301 19:19:59.554487  6417 net.cpp:137] Memory required for data: 100217676
I0301 19:19:59.554492  6417 layer_factory.hpp:77] Creating layer relu9
I0301 19:19:59.554498  6417 net.cpp:84] Creating Layer relu9
I0301 19:19:59.554502  6417 net.cpp:406] relu9 <- scale9
I0301 19:19:59.554507  6417 net.cpp:367] relu9 -> scale9 (in-place)
I0301 19:19:59.554958  6417 net.cpp:122] Setting up relu9
I0301 19:19:59.554970  6417 net.cpp:129] Top shape: 1 9 13 13 (1521)
I0301 19:19:59.554975  6417 net.cpp:137] Memory required for data: 100223760
I0301 19:19:59.554980  6417 layer_factory.hpp:77] Creating layer conv10
I0301 19:19:59.554986  6417 net.cpp:84] Creating Layer conv10
I0301 19:19:59.554991  6417 net.cpp:406] conv10 <- scale9
I0301 19:19:59.554996  6417 net.cpp:380] conv10 -> conv10
I0301 19:19:59.556532  6417 net.cpp:122] Setting up conv10
I0301 19:19:59.556545  6417 net.cpp:129] Top shape: 1 9 13 13 (1521)
I0301 19:19:59.556550  6417 net.cpp:137] Memory required for data: 100229844
I0301 19:19:59.556555  6417 layer_factory.hpp:77] Creating layer bn10
I0301 19:19:59.556562  6417 net.cpp:84] Creating Layer bn10
I0301 19:19:59.556567  6417 net.cpp:406] bn10 <- conv10
I0301 19:19:59.556572  6417 net.cpp:380] bn10 -> bn10
I0301 19:19:59.556757  6417 net.cpp:122] Setting up bn10
I0301 19:19:59.556764  6417 net.cpp:129] Top shape: 1 9 13 13 (1521)
I0301 19:19:59.556768  6417 net.cpp:137] Memory required for data: 100235928
I0301 19:19:59.556774  6417 layer_factory.hpp:77] Creating layer scale10
I0301 19:19:59.556780  6417 net.cpp:84] Creating Layer scale10
I0301 19:19:59.556784  6417 net.cpp:406] scale10 <- bn10
I0301 19:19:59.556789  6417 net.cpp:380] scale10 -> scale10
I0301 19:19:59.556824  6417 layer_factory.hpp:77] Creating layer scale10
I0301 19:19:59.556927  6417 net.cpp:122] Setting up scale10
I0301 19:19:59.556933  6417 net.cpp:129] Top shape: 1 9 13 13 (1521)
I0301 19:19:59.556937  6417 net.cpp:137] Memory required for data: 100242012
I0301 19:19:59.556942  6417 layer_factory.hpp:77] Creating layer relu10
I0301 19:19:59.556948  6417 net.cpp:84] Creating Layer relu10
I0301 19:19:59.556952  6417 net.cpp:406] relu10 <- scale10
I0301 19:19:59.556957  6417 net.cpp:367] relu10 -> scale10 (in-place)
I0301 19:19:59.557123  6417 net.cpp:122] Setting up relu10
I0301 19:19:59.557133  6417 net.cpp:129] Top shape: 1 9 13 13 (1521)
I0301 19:19:59.557137  6417 net.cpp:137] Memory required for data: 100248096
I0301 19:19:59.557140  6417 layer_factory.hpp:77] Creating layer upscore
I0301 19:19:59.557148  6417 net.cpp:84] Creating Layer upscore
I0301 19:19:59.557153  6417 net.cpp:406] upscore <- scale10
I0301 19:19:59.557157  6417 net.cpp:380] upscore -> upscore
I0301 19:19:59.557966  6417 net.cpp:122] Setting up upscore
I0301 19:19:59.557979  6417 net.cpp:129] Top shape: 1 9 416 416 (1557504)
I0301 19:19:59.557982  6417 net.cpp:137] Memory required for data: 106478112
I0301 19:19:59.557996  6417 net.cpp:200] upscore does not need backward computation.
I0301 19:19:59.557999  6417 net.cpp:200] relu10 does not need backward computation.
I0301 19:19:59.558004  6417 net.cpp:200] scale10 does not need backward computation.
I0301 19:19:59.558007  6417 net.cpp:200] bn10 does not need backward computation.
…
