…
I0301 19:20:46.292264  6436 upgrade_proto.cpp:67] Attempting to upgrade input file specified using deprecated input fields: voc-8c.prototxt
I0301 19:20:46.292312  6436 upgrade_proto.cpp:70] Successfully upgraded file specified using deprecated input fields.
W0301 19:20:46.292317  6436 upgrade_proto.cpp:72] Note that future Caffe releases will only support input layers and not input fields.
I0301 19:20:46.292652  6436 net.cpp:51] Initializing net from parameters: 
name: "glanceNet"
state {
  phase: TRAIN
  level: 0
  stage: ""
}
layer {
  name: "input"
  type: "Input"
  top: "data"
  input_param {
    shape {
      dim: 1
      dim: 3
      dim: 416
      dim: 416
    }
  }
}
layer {
  name: "conv1"
  type: "Convolution"
  bottom: "data"
  top: "conv1"
  convolution_param {
    num_output: 16
    bias_term: false
    pad: 1
    kernel_size: 3
    stride: 1
  }
}
layer {
  name: "bn1"
  type: "BatchNorm"
  bottom: "conv1"
  top: "bn1"
  batch_norm_param {
    use_global_stats: true
  }
}
layer {
  name: "scale1"
  type: "Scale"
  bottom: "bn1"
  top: "scale1"
  scale_param {
    bias_term: true
  }
}
layer {
  name: "relu1"
  type: "ReLU"
  bottom: "scale1"
  top: "scale1"
  relu_param {
    negative_slope: 0.1
  }
}
layer {
  name: "pool1"
  type: "Pooling"
  bottom: "scale1"
  top: "pool1"
  pooling_param {
    pool: MAX
    kernel_size: 2
    stride: 2
  }
}
layer {
  name: "conv2"
  type: "Convolution"
  bottom: "pool1"
  top: "conv2"
  convolution_param {
    num_output: 32
    bias_term: false
    pad: 1
    kernel_size: 3
    stride: 1
  }
}
layer {
  name: "bn2"
  type: "BatchNorm"
  bottom: "conv2"
  top: "bn2"
  batch_norm_param {
    use_global_stats: true
  }
}
layer {
  name: "scale2"
  type: "Scale"
  bottom: "bn2"
  top: "scale2"
  scale_param {
    bias_term: true
  }
}
layer {
  name: "relu2"
  type: "ReLU"
  bottom: "scale2"
  top: "scale2"
  relu_param {
    negative_slope: 0.1
  }
}
layer {
  name: "pool2"
  type: "Pooling"
  bottom: "scale2"
  top: "pool2"
  pooling_param {
    pool: MAX
    kernel_size: 2
    stride: 2
  }
}
layer {
  name: "conv3"
  type: "Convolution"
  bottom: "pool2"
  top: "conv3"
  convolution_param {
    num_output: 64
    bias_term: false
    pad: 1
    kernel_size: 3
    stride: 1
  }
}
layer {
  name: "bn3"
  type: "BatchNorm"
  bottom: "conv3"
  top: "bn3"
  batch_norm_param {
    use_global_stats: true
  }
}
layer {
  name: "scale3"
  type: "Scale"
  bottom: "bn3"
  top: "scale3"
  scale_param {
    bias_term: true
  }
}
layer {
  name: "relu3"
  type: "ReLU"
  bottom: "scale3"
  top: "scale3"
  relu_param {
    negative_slope: 0.1
  }
}
layer {
  name: "pool3"
  type: "Pooling"
  bottom: "scale3"
  top: "pool3"
  pooling_param {
    pool: MAX
    kernel_size: 2
    stride: 2
  }
}
layer {
  name: "conv4"
  type: "Convolution"
  bottom: "pool3"
  top: "conv4"
  convolution_param {
    num_output: 128
    bias_term: false
    pad: 1
    kernel_size: 3
    stride: 1
  }
}
layer {
  name: "bn4"
  type: "BatchNorm"
  bottom: "conv4"
  top: "bn4"
  batch_norm_param {
    use_global_stats: true
  }
}
layer {
  name: "scale4"
  type: "Scale"
  bottom: "bn4"
  top: "scale4"
  scale_param {
    bias_term: true
  }
}
layer {
  name: "relu4"
  type: "ReLU"
  bottom: "scale4"
  top: "scale4"
  relu_param {
    negative_slope: 0.1
  }
}
layer {
  name: "pool4"
  type: "Pooling"
  bottom: "scale4"
  top: "pool4"
  pooling_param {
    pool: MAX
    kernel_size: 2
    stride: 2
  }
}
layer {
  name: "conv5"
  type: "Convolution"
  bottom: "pool4"
  top: "conv5"
  convolution_param {
    num_output: 256
    bias_term: false
    pad: 1
    kernel_size: 3
    stride: 1
  }
}
layer {
  name: "bn5"
  type: "BatchNorm"
  bottom: "conv5"
  top: "bn5"
  batch_norm_param {
    use_global_stats: true
  }
}
layer {
  name: "scale5"
  type: "Scale"
  bottom: "bn5"
  top: "scale5"
  scale_param {
    bias_term: true
  }
}
layer {
  name: "relu5"
  type: "ReLU"
  bottom: "scale5"
  top: "scale5"
  relu_param {
    negative_slope: 0.1
  }
}
layer {
  name: "pool5"
  type: "Pooling"
  bottom: "scale5"
  top: "pool5"
  pooling_param {
    pool: MAX
    kernel_size: 2
    stride: 2
  }
}
layer {
  name: "conv6"
  type: "Convolution"
  bottom: "pool5"
  top: "conv6"
  convolution_param {
    num_output: 512
    bias_term: false
    pad: 1
    kernel_size: 3
    stride: 1
  }
}
layer {
  name: "bn6"
  type: "BatchNorm"
  bottom: "conv6"
  top: "bn6"
  batch_norm_param {
    use_global_stats: true
  }
}
layer {
  name: "scale6"
  type: "Scale"
  bottom: "bn6"
  top: "scale6"
  scale_param {
    bias_term: true
  }
}
layer {
  name: "relu6"
  type: "ReLU"
  bottom: "scale6"
  top: "scale6"
  relu_param {
    negative_slope: 0.1
  }
}
layer {
  name: "conv7"
  type: "Convolution"
  bottom: "scale6"
  top: "conv7"
  convolution_param {
    num_output: 1024
    bias_term: false
    pad: 1
    kernel_size: 3
    stride: 1
  }
}
layer {
  name: "bn7"
  type: "BatchNorm"
  bottom: "conv7"
  top: "bn7"
  batch_norm_param {
    use_global_stats: true
  }
}
layer {
  name: "scale7"
  type: "Scale"
  bottom: "bn7"
  top: "scale7"
  scale_param {
    bias_term: true
  }
}
layer {
  name: "relu7"
  type: "ReLU"
  bottom: "scale7"
  top: "scale7"
  relu_param {
    negative_slope: 0.1
  }
}
layer {
  name: "conv8"
  type: "Convolution"
  bottom: "scale7"
  top: "conv8"
  convolution_param {
    num_output: 1024
    bias_term: false
    pad: 1
    kernel_size: 3
    stride: 1
  }
}
layer {
  name: "bn8"
  type: "BatchNorm"
  bottom: "conv8"
  top: "bn8"
  batch_norm_param {
    use_global_stats: true
  }
}
layer {
  name: "scale8"
  type: "Scale"
  bottom: "bn8"
  top: "scale8"
  scale_param {
    bias_term: true
  }
}
layer {
  name: "relu8"
  type: "ReLU"
  bottom: "scale8"
  top: "scale8"
  relu_param {
    negative_slope: 0.1
  }
}
layer {
  name: "conv9"
  type: "Convolution"
  bottom: "scale8"
  top: "result"
  convolution_param {
    num_output: 65
    bias_term: true
    kernel_size: 1
    stride: 1
  }
}
I0301 19:20:46.292775  6436 layer_factory.hpp:77] Creating layer input
I0301 19:20:46.292791  6436 net.cpp:84] Creating Layer input
I0301 19:20:46.292796  6436 net.cpp:380] input -> data
I0301 19:20:46.304448  6436 net.cpp:122] Setting up input
I0301 19:20:46.304493  6436 net.cpp:129] Top shape: 1 3 416 416 (519168)
I0301 19:20:46.304497  6436 net.cpp:137] Memory required for data: 2076672
I0301 19:20:46.304515  6436 layer_factory.hpp:77] Creating layer conv1
I0301 19:20:46.304531  6436 net.cpp:84] Creating Layer conv1
I0301 19:20:46.304536  6436 net.cpp:406] conv1 <- data
I0301 19:20:46.304554  6436 net.cpp:380] conv1 -> conv1
I0301 19:20:46.638954  6436 net.cpp:122] Setting up conv1
I0301 19:20:46.638993  6436 net.cpp:129] Top shape: 1 16 416 416 (2768896)
I0301 19:20:46.638996  6436 net.cpp:137] Memory required for data: 13152256
I0301 19:20:46.639019  6436 layer_factory.hpp:77] Creating layer bn1
I0301 19:20:46.639030  6436 net.cpp:84] Creating Layer bn1
I0301 19:20:46.639035  6436 net.cpp:406] bn1 <- conv1
I0301 19:20:46.639040  6436 net.cpp:380] bn1 -> bn1
I0301 19:20:46.639698  6436 net.cpp:122] Setting up bn1
I0301 19:20:46.639720  6436 net.cpp:129] Top shape: 1 16 416 416 (2768896)
I0301 19:20:46.639724  6436 net.cpp:137] Memory required for data: 24227840
I0301 19:20:46.639734  6436 layer_factory.hpp:77] Creating layer scale1
I0301 19:20:46.639753  6436 net.cpp:84] Creating Layer scale1
I0301 19:20:46.639758  6436 net.cpp:406] scale1 <- bn1
I0301 19:20:46.639762  6436 net.cpp:380] scale1 -> scale1
I0301 19:20:46.639801  6436 layer_factory.hpp:77] Creating layer scale1
I0301 19:20:46.640846  6436 net.cpp:122] Setting up scale1
I0301 19:20:46.640868  6436 net.cpp:129] Top shape: 1 16 416 416 (2768896)
I0301 19:20:46.640872  6436 net.cpp:137] Memory required for data: 35303424
I0301 19:20:46.640878  6436 layer_factory.hpp:77] Creating layer relu1
I0301 19:20:46.640897  6436 net.cpp:84] Creating Layer relu1
I0301 19:20:46.640902  6436 net.cpp:406] relu1 <- scale1
I0301 19:20:46.640905  6436 net.cpp:367] relu1 -> scale1 (in-place)
I0301 19:20:46.641379  6436 net.cpp:122] Setting up relu1
I0301 19:20:46.641400  6436 net.cpp:129] Top shape: 1 16 416 416 (2768896)
I0301 19:20:46.641425  6436 net.cpp:137] Memory required for data: 46379008
I0301 19:20:46.641429  6436 layer_factory.hpp:77] Creating layer pool1
I0301 19:20:46.641436  6436 net.cpp:84] Creating Layer pool1
I0301 19:20:46.641440  6436 net.cpp:406] pool1 <- scale1
I0301 19:20:46.641445  6436 net.cpp:380] pool1 -> pool1
I0301 19:20:46.641511  6436 net.cpp:122] Setting up pool1
I0301 19:20:46.641518  6436 net.cpp:129] Top shape: 1 16 208 208 (692224)
I0301 19:20:46.641531  6436 net.cpp:137] Memory required for data: 49147904
I0301 19:20:46.641535  6436 layer_factory.hpp:77] Creating layer conv2
I0301 19:20:46.641541  6436 net.cpp:84] Creating Layer conv2
I0301 19:20:46.641554  6436 net.cpp:406] conv2 <- pool1
I0301 19:20:46.641558  6436 net.cpp:380] conv2 -> conv2
I0301 19:20:46.643363  6436 net.cpp:122] Setting up conv2
I0301 19:20:46.643386  6436 net.cpp:129] Top shape: 1 32 208 208 (1384448)
I0301 19:20:46.643389  6436 net.cpp:137] Memory required for data: 54685696
I0301 19:20:46.643394  6436 layer_factory.hpp:77] Creating layer bn2
I0301 19:20:46.643411  6436 net.cpp:84] Creating Layer bn2
I0301 19:20:46.643419  6436 net.cpp:406] bn2 <- conv2
I0301 19:20:46.643422  6436 net.cpp:380] bn2 -> bn2
I0301 19:20:46.644014  6436 net.cpp:122] Setting up bn2
I0301 19:20:46.644035  6436 net.cpp:129] Top shape: 1 32 208 208 (1384448)
I0301 19:20:46.644039  6436 net.cpp:137] Memory required for data: 60223488
I0301 19:20:46.644048  6436 layer_factory.hpp:77] Creating layer scale2
I0301 19:20:46.644065  6436 net.cpp:84] Creating Layer scale2
I0301 19:20:46.644070  6436 net.cpp:406] scale2 <- bn2
I0301 19:20:46.644074  6436 net.cpp:380] scale2 -> scale2
I0301 19:20:46.644120  6436 layer_factory.hpp:77] Creating layer scale2
I0301 19:20:46.644299  6436 net.cpp:122] Setting up scale2
I0301 19:20:46.644306  6436 net.cpp:129] Top shape: 1 32 208 208 (1384448)
I0301 19:20:46.644320  6436 net.cpp:137] Memory required for data: 65761280
I0301 19:20:46.644325  6436 layer_factory.hpp:77] Creating layer relu2
I0301 19:20:46.644330  6436 net.cpp:84] Creating Layer relu2
I0301 19:20:46.644343  6436 net.cpp:406] relu2 <- scale2
I0301 19:20:46.644346  6436 net.cpp:367] relu2 -> scale2 (in-place)
I0301 19:20:46.644518  6436 net.cpp:122] Setting up relu2
I0301 19:20:46.644526  6436 net.cpp:129] Top shape: 1 32 208 208 (1384448)
I0301 19:20:46.644539  6436 net.cpp:137] Memory required for data: 71299072
I0301 19:20:46.644542  6436 layer_factory.hpp:77] Creating layer pool2
I0301 19:20:46.644547  6436 net.cpp:84] Creating Layer pool2
I0301 19:20:46.644551  6436 net.cpp:406] pool2 <- scale2
I0301 19:20:46.644565  6436 net.cpp:380] pool2 -> pool2
I0301 19:20:46.644613  6436 net.cpp:122] Setting up pool2
I0301 19:20:46.644618  6436 net.cpp:129] Top shape: 1 32 104 104 (346112)
I0301 19:20:46.644636  6436 net.cpp:137] Memory required for data: 72683520
I0301 19:20:46.644639  6436 layer_factory.hpp:77] Creating layer conv3
I0301 19:20:46.644655  6436 net.cpp:84] Creating Layer conv3
I0301 19:20:46.644659  6436 net.cpp:406] conv3 <- pool2
I0301 19:20:46.644672  6436 net.cpp:380] conv3 -> conv3
I0301 19:20:46.646158  6436 net.cpp:122] Setting up conv3
I0301 19:20:46.646180  6436 net.cpp:129] Top shape: 1 64 104 104 (692224)
I0301 19:20:46.646183  6436 net.cpp:137] Memory required for data: 75452416
I0301 19:20:46.646188  6436 layer_factory.hpp:77] Creating layer bn3
I0301 19:20:46.646193  6436 net.cpp:84] Creating Layer bn3
I0301 19:20:46.646208  6436 net.cpp:406] bn3 <- conv3
I0301 19:20:46.646215  6436 net.cpp:380] bn3 -> bn3
I0301 19:20:46.646409  6436 net.cpp:122] Setting up bn3
I0301 19:20:46.646416  6436 net.cpp:129] Top shape: 1 64 104 104 (692224)
I0301 19:20:46.646430  6436 net.cpp:137] Memory required for data: 78221312
I0301 19:20:46.646436  6436 layer_factory.hpp:77] Creating layer scale3
I0301 19:20:46.646451  6436 net.cpp:84] Creating Layer scale3
I0301 19:20:46.646455  6436 net.cpp:406] scale3 <- bn3
I0301 19:20:46.646461  6436 net.cpp:380] scale3 -> scale3
I0301 19:20:46.646512  6436 layer_factory.hpp:77] Creating layer scale3
I0301 19:20:46.646667  6436 net.cpp:122] Setting up scale3
I0301 19:20:46.646674  6436 net.cpp:129] Top shape: 1 64 104 104 (692224)
I0301 19:20:46.646687  6436 net.cpp:137] Memory required for data: 80990208
I0301 19:20:46.646695  6436 layer_factory.hpp:77] Creating layer relu3
I0301 19:20:46.646710  6436 net.cpp:84] Creating Layer relu3
I0301 19:20:46.646716  6436 net.cpp:406] relu3 <- scale3
I0301 19:20:46.646720  6436 net.cpp:367] relu3 -> scale3 (in-place)
I0301 19:20:46.647173  6436 net.cpp:122] Setting up relu3
I0301 19:20:46.647184  6436 net.cpp:129] Top shape: 1 64 104 104 (692224)
I0301 19:20:46.647197  6436 net.cpp:137] Memory required for data: 83759104
I0301 19:20:46.647200  6436 layer_factory.hpp:77] Creating layer pool3
I0301 19:20:46.647205  6436 net.cpp:84] Creating Layer pool3
I0301 19:20:46.647208  6436 net.cpp:406] pool3 <- scale3
I0301 19:20:46.647224  6436 net.cpp:380] pool3 -> pool3
I0301 19:20:46.647279  6436 net.cpp:122] Setting up pool3
I0301 19:20:46.647285  6436 net.cpp:129] Top shape: 1 64 52 52 (173056)
I0301 19:20:46.647298  6436 net.cpp:137] Memory required for data: 84451328
I0301 19:20:46.647301  6436 layer_factory.hpp:77] Creating layer conv4
I0301 19:20:46.647310  6436 net.cpp:84] Creating Layer conv4
I0301 19:20:46.647322  6436 net.cpp:406] conv4 <- pool3
I0301 19:20:46.647326  6436 net.cpp:380] conv4 -> conv4
I0301 19:20:46.648829  6436 net.cpp:122] Setting up conv4
I0301 19:20:46.648843  6436 net.cpp:129] Top shape: 1 128 52 52 (346112)
I0301 19:20:46.648855  6436 net.cpp:137] Memory required for data: 85835776
I0301 19:20:46.648859  6436 layer_factory.hpp:77] Creating layer bn4
I0301 19:20:46.648864  6436 net.cpp:84] Creating Layer bn4
I0301 19:20:46.648878  6436 net.cpp:406] bn4 <- conv4
I0301 19:20:46.648885  6436 net.cpp:380] bn4 -> bn4
I0301 19:20:46.649443  6436 net.cpp:122] Setting up bn4
I0301 19:20:46.649454  6436 net.cpp:129] Top shape: 1 128 52 52 (346112)
I0301 19:20:46.649467  6436 net.cpp:137] Memory required for data: 87220224
I0301 19:20:46.649473  6436 layer_factory.hpp:77] Creating layer scale4
I0301 19:20:46.649489  6436 net.cpp:84] Creating Layer scale4
I0301 19:20:46.649492  6436 net.cpp:406] scale4 <- bn4
I0301 19:20:46.649498  6436 net.cpp:380] scale4 -> scale4
I0301 19:20:46.649552  6436 layer_factory.hpp:77] Creating layer scale4
I0301 19:20:46.649693  6436 net.cpp:122] Setting up scale4
I0301 19:20:46.649699  6436 net.cpp:129] Top shape: 1 128 52 52 (346112)
I0301 19:20:46.649713  6436 net.cpp:137] Memory required for data: 88604672
I0301 19:20:46.649716  6436 layer_factory.hpp:77] Creating layer relu4
I0301 19:20:46.649722  6436 net.cpp:84] Creating Layer relu4
I0301 19:20:46.649726  6436 net.cpp:406] relu4 <- scale4
I0301 19:20:46.649729  6436 net.cpp:367] relu4 -> scale4 (in-place)
I0301 19:20:46.650180  6436 net.cpp:122] Setting up relu4
I0301 19:20:46.650202  6436 net.cpp:129] Top shape: 1 128 52 52 (346112)
I0301 19:20:46.650207  6436 net.cpp:137] Memory required for data: 89989120
I0301 19:20:46.650208  6436 layer_factory.hpp:77] Creating layer pool4
I0301 19:20:46.650215  6436 net.cpp:84] Creating Layer pool4
I0301 19:20:46.650219  6436 net.cpp:406] pool4 <- scale4
I0301 19:20:46.650223  6436 net.cpp:380] pool4 -> pool4
I0301 19:20:46.650271  6436 net.cpp:122] Setting up pool4
I0301 19:20:46.650277  6436 net.cpp:129] Top shape: 1 128 26 26 (86528)
I0301 19:20:46.650290  6436 net.cpp:137] Memory required for data: 90335232
I0301 19:20:46.650292  6436 layer_factory.hpp:77] Creating layer conv5
I0301 19:20:46.650300  6436 net.cpp:84] Creating Layer conv5
I0301 19:20:46.650303  6436 net.cpp:406] conv5 <- pool4
I0301 19:20:46.650308  6436 net.cpp:380] conv5 -> conv5
I0301 19:20:46.652585  6436 net.cpp:122] Setting up conv5
I0301 19:20:46.652614  6436 net.cpp:129] Top shape: 1 256 26 26 (173056)
I0301 19:20:46.652617  6436 net.cpp:137] Memory required for data: 91027456
I0301 19:20:46.652623  6436 layer_factory.hpp:77] Creating layer bn5
I0301 19:20:46.652631  6436 net.cpp:84] Creating Layer bn5
I0301 19:20:46.652634  6436 net.cpp:406] bn5 <- conv5
I0301 19:20:46.652652  6436 net.cpp:380] bn5 -> bn5
I0301 19:20:46.652878  6436 net.cpp:122] Setting up bn5
I0301 19:20:46.652887  6436 net.cpp:129] Top shape: 1 256 26 26 (173056)
I0301 19:20:46.652900  6436 net.cpp:137] Memory required for data: 91719680
I0301 19:20:46.652906  6436 layer_factory.hpp:77] Creating layer scale5
I0301 19:20:46.652912  6436 net.cpp:84] Creating Layer scale5
I0301 19:20:46.652915  6436 net.cpp:406] scale5 <- bn5
I0301 19:20:46.652920  6436 net.cpp:380] scale5 -> scale5
I0301 19:20:46.652954  6436 layer_factory.hpp:77] Creating layer scale5
I0301 19:20:46.653059  6436 net.cpp:122] Setting up scale5
I0301 19:20:46.653080  6436 net.cpp:129] Top shape: 1 256 26 26 (173056)
I0301 19:20:46.653084  6436 net.cpp:137] Memory required for data: 92411904
I0301 19:20:46.653105  6436 layer_factory.hpp:77] Creating layer relu5
I0301 19:20:46.653122  6436 net.cpp:84] Creating Layer relu5
I0301 19:20:46.653128  6436 net.cpp:406] relu5 <- scale5
I0301 19:20:46.653136  6436 net.cpp:367] relu5 -> scale5 (in-place)
I0301 19:20:46.653419  6436 net.cpp:122] Setting up relu5
I0301 19:20:46.653430  6436 net.cpp:129] Top shape: 1 256 26 26 (173056)
I0301 19:20:46.653434  6436 net.cpp:137] Memory required for data: 93104128
I0301 19:20:46.653450  6436 layer_factory.hpp:77] Creating layer pool5
I0301 19:20:46.653456  6436 net.cpp:84] Creating Layer pool5
I0301 19:20:46.653461  6436 net.cpp:406] pool5 <- scale5
I0301 19:20:46.653465  6436 net.cpp:380] pool5 -> pool5
I0301 19:20:46.653520  6436 net.cpp:122] Setting up pool5
I0301 19:20:46.653527  6436 net.cpp:129] Top shape: 1 256 13 13 (43264)
I0301 19:20:46.653529  6436 net.cpp:137] Memory required for data: 93277184
I0301 19:20:46.653547  6436 layer_factory.hpp:77] Creating layer conv6
I0301 19:20:46.653554  6436 net.cpp:84] Creating Layer conv6
I0301 19:20:46.653558  6436 net.cpp:406] conv6 <- pool5
I0301 19:20:46.653563  6436 net.cpp:380] conv6 -> conv6
I0301 19:20:46.657479  6436 net.cpp:122] Setting up conv6
I0301 19:20:46.657508  6436 net.cpp:129] Top shape: 1 512 13 13 (86528)
I0301 19:20:46.657511  6436 net.cpp:137] Memory required for data: 93623296
I0301 19:20:46.657519  6436 layer_factory.hpp:77] Creating layer bn6
I0301 19:20:46.657531  6436 net.cpp:84] Creating Layer bn6
I0301 19:20:46.657536  6436 net.cpp:406] bn6 <- conv6
I0301 19:20:46.657544  6436 net.cpp:380] bn6 -> bn6
I0301 19:20:46.657734  6436 net.cpp:122] Setting up bn6
I0301 19:20:46.657742  6436 net.cpp:129] Top shape: 1 512 13 13 (86528)
I0301 19:20:46.657744  6436 net.cpp:137] Memory required for data: 93969408
I0301 19:20:46.657757  6436 layer_factory.hpp:77] Creating layer scale6
I0301 19:20:46.657765  6436 net.cpp:84] Creating Layer scale6
I0301 19:20:46.657769  6436 net.cpp:406] scale6 <- bn6
I0301 19:20:46.657774  6436 net.cpp:380] scale6 -> scale6
I0301 19:20:46.657809  6436 layer_factory.hpp:77] Creating layer scale6
I0301 19:20:46.657907  6436 net.cpp:122] Setting up scale6
I0301 19:20:46.657913  6436 net.cpp:129] Top shape: 1 512 13 13 (86528)
I0301 19:20:46.657917  6436 net.cpp:137] Memory required for data: 94315520
I0301 19:20:46.657922  6436 layer_factory.hpp:77] Creating layer relu6
I0301 19:20:46.657929  6436 net.cpp:84] Creating Layer relu6
I0301 19:20:46.657933  6436 net.cpp:406] relu6 <- scale6
I0301 19:20:46.657938  6436 net.cpp:367] relu6 -> scale6 (in-place)
I0301 19:20:46.658399  6436 net.cpp:122] Setting up relu6
I0301 19:20:46.658411  6436 net.cpp:129] Top shape: 1 512 13 13 (86528)
I0301 19:20:46.658416  6436 net.cpp:137] Memory required for data: 94661632
I0301 19:20:46.658419  6436 layer_factory.hpp:77] Creating layer conv7
I0301 19:20:46.658428  6436 net.cpp:84] Creating Layer conv7
I0301 19:20:46.658432  6436 net.cpp:406] conv7 <- scale6
I0301 19:20:46.658438  6436 net.cpp:380] conv7 -> conv7
I0301 19:20:46.668814  6436 net.cpp:122] Setting up conv7
I0301 19:20:46.668860  6436 net.cpp:129] Top shape: 1 1024 13 13 (173056)
I0301 19:20:46.668864  6436 net.cpp:137] Memory required for data: 95353856
I0301 19:20:46.668872  6436 layer_factory.hpp:77] Creating layer bn7
I0301 19:20:46.668916  6436 net.cpp:84] Creating Layer bn7
I0301 19:20:46.668922  6436 net.cpp:406] bn7 <- conv7
I0301 19:20:46.668941  6436 net.cpp:380] bn7 -> bn7
I0301 19:20:46.669178  6436 net.cpp:122] Setting up bn7
I0301 19:20:46.669196  6436 net.cpp:129] Top shape: 1 1024 13 13 (173056)
I0301 19:20:46.669199  6436 net.cpp:137] Memory required for data: 96046080
I0301 19:20:46.669221  6436 layer_factory.hpp:77] Creating layer scale7
I0301 19:20:46.669232  6436 net.cpp:84] Creating Layer scale7
I0301 19:20:46.669236  6436 net.cpp:406] scale7 <- bn7
I0301 19:20:46.669241  6436 net.cpp:380] scale7 -> scale7
I0301 19:20:46.669277  6436 layer_factory.hpp:77] Creating layer scale7
I0301 19:20:46.669430  6436 net.cpp:122] Setting up scale7
I0301 19:20:46.669437  6436 net.cpp:129] Top shape: 1 1024 13 13 (173056)
I0301 19:20:46.669451  6436 net.cpp:137] Memory required for data: 96738304
I0301 19:20:46.669456  6436 layer_factory.hpp:77] Creating layer relu7
I0301 19:20:46.669479  6436 net.cpp:84] Creating Layer relu7
I0301 19:20:46.669483  6436 net.cpp:406] relu7 <- scale7
I0301 19:20:46.669486  6436 net.cpp:367] relu7 -> scale7 (in-place)
I0301 19:20:46.669709  6436 net.cpp:122] Setting up relu7
I0301 19:20:46.669718  6436 net.cpp:129] Top shape: 1 1024 13 13 (173056)
I0301 19:20:46.669734  6436 net.cpp:137] Memory required for data: 97430528
I0301 19:20:46.669737  6436 layer_factory.hpp:77] Creating layer conv8
I0301 19:20:46.669746  6436 net.cpp:84] Creating Layer conv8
I0301 19:20:46.669750  6436 net.cpp:406] conv8 <- scale7
I0301 19:20:46.669755  6436 net.cpp:380] conv8 -> conv8
I0301 19:20:46.689093  6436 net.cpp:122] Setting up conv8
I0301 19:20:46.689134  6436 net.cpp:129] Top shape: 1 1024 13 13 (173056)
I0301 19:20:46.689138  6436 net.cpp:137] Memory required for data: 98122752
I0301 19:20:46.689144  6436 layer_factory.hpp:77] Creating layer bn8
I0301 19:20:46.689165  6436 net.cpp:84] Creating Layer bn8
I0301 19:20:46.689172  6436 net.cpp:406] bn8 <- conv8
I0301 19:20:46.689178  6436 net.cpp:380] bn8 -> bn8
I0301 19:20:46.689383  6436 net.cpp:122] Setting up bn8
I0301 19:20:46.689389  6436 net.cpp:129] Top shape: 1 1024 13 13 (173056)
I0301 19:20:46.689402  6436 net.cpp:137] Memory required for data: 98814976
I0301 19:20:46.689409  6436 layer_factory.hpp:77] Creating layer scale8
I0301 19:20:46.689415  6436 net.cpp:84] Creating Layer scale8
I0301 19:20:46.689429  6436 net.cpp:406] scale8 <- bn8
I0301 19:20:46.689435  6436 net.cpp:380] scale8 -> scale8
I0301 19:20:46.689482  6436 layer_factory.hpp:77] Creating layer scale8
I0301 19:20:46.689631  6436 net.cpp:122] Setting up scale8
I0301 19:20:46.689637  6436 net.cpp:129] Top shape: 1 1024 13 13 (173056)
I0301 19:20:46.689651  6436 net.cpp:137] Memory required for data: 99507200
I0301 19:20:46.689656  6436 layer_factory.hpp:77] Creating layer relu8
I0301 19:20:46.689661  6436 net.cpp:84] Creating Layer relu8
I0301 19:20:46.689673  6436 net.cpp:406] relu8 <- scale8
I0301 19:20:46.689678  6436 net.cpp:367] relu8 -> scale8 (in-place)
I0301 19:20:46.690398  6436 net.cpp:122] Setting up relu8
I0301 19:20:46.690419  6436 net.cpp:129] Top shape: 1 1024 13 13 (173056)
I0301 19:20:46.690423  6436 net.cpp:137] Memory required for data: 100199424
I0301 19:20:46.690425  6436 layer_factory.hpp:77] Creating layer conv9
I0301 19:20:46.690444  6436 net.cpp:84] Creating Layer conv9
I0301 19:20:46.690450  6436 net.cpp:406] conv9 <- scale8
I0301 19:20:46.690455  6436 net.cpp:380] conv9 -> result
I0301 19:20:46.692065  6436 net.cpp:122] Setting up conv9
I0301 19:20:46.692088  6436 net.cpp:129] Top shape: 1 65 13 13 (10985)
I0301 19:20:46.692091  6436 net.cpp:137] Memory required for data: 100243364
I0301 19:20:46.692097  6436 net.cpp:200] conv9 does not need backward computation.
I0301 19:20:46.692101  6436 net.cpp:200] relu8 does not need backward computation.
I0301 19:20:46.692113  6436 net.cpp:200] scale8 does not need backward computation.
I0301 19:20:46.692116  6436 net.cpp:200] bn8 does not need backward computation.
…
